Lab6/mnist_cnn_model.pth (torch, 445864 bytes, 10 tensors)

0.weight f4 [32, 1, 3, 3]
00000000: cae7 5cbc 50fd 1d3e 3ff9 87be 4ef0 f73c
00000010: dac7 9c3e be58 a1be 2016 863c ebfa 0f3e
00000020: 9749 893e f8bf bdbd 2ddd 603e ff3d 66bd
00000030: 8005 8d3e 746f b13d 7588 b3be a18c 2e3e
00000040: b10f 23be 41dd 5bbe 5aed f03c 3f42 9c3e
00000050: a7e7 9fbe 067a f7bd 270b debe d6aa bbbe
00000060: d9d5 8ebe fa7d acbe 51ac de3e 80af b2be
00000070: e5cf 213e 040e 2e3d c501 07be ff5c 8b3e
00000080: 6ab6 583d 9554 633e a8cc ee3c 2979 47be
00000090: aced d83d eed0 9bbd 89bd 9f3d 27a3 f13d
000000a0: c6f3 6b3d f34a 08be d6f1 133d 6ade cb3c
000000b0: ae71 5d3e 2a7b 533b 180e bdbe c3e4 38be
000000c0: 762b 6cbe c383 fb3d 30bb f23d 1a2f 883e
000000d0: 62ff f73d 32c3 633d bdff 5a3e dca6 0bbe
000000e0: 6b59 dfbd 71c0 06be 2b07 113e 02c6 55be
000000f0: 6a8d 033e 2f90 0a3d 6f47 c33e aa7a 2abe
00000100: fc68 84be e740 93be 8170 613e 44d7 81be
00000110: bccc 76bb fcc8 61be a302 bcbe d990 eebe
00000120: 853f 83be 70ce 073e 3e61 003d 4d72 453e
00000130: fefa 20be e112 97be dae7 053e d080 a3bd
00000140: 8e48 773e fdf7 c5bd 2799 843e 8235 93be
00000150: 1182 58be 403c 063e 54d4 893c 9cc0 0dbe
00000160: 8d2d 343b 64d9 7f3e 038a b9be 8d05 4e3c
00000170: c8fb 0f3f 4308 dabe 3c91 06bf f364 4bbe
00000180: bd37 a43d df94 d9bd 2283 95be dd4a 3ebe
00000190: 79dd f33d 0d30 9fbc 838e d6be ab3a 24bf
000001a0: d624 22bf fcc5 c0bd ece9 dc3e 08b6 1f3e
000001b0: 55b5 c03e 3260 94bd 569e 09bf 27ab debd
000001c0: 0b19 b6bd f8ec cdbe d885 f5be 116f bebe
000001d0: e43b 37be 3968 cdbd ce5b 303d ae02 80be
000001e0: d360 76be fc5d a9be f306 8ebe 0ea0 0cbe
000001f0: 395b 0f3e 7dc1 91be 3fc4 863e 701c 2b3e
00000200: 6ea6 bebe d1f4 9e3e b0e7 69be f1ae 99be
00000210: 37e7 a5be fc03 19bf 4217 093e 3b0b 3cbd
00000220: cc09 193e 0aaf a0be fee0 343e 2939 21be
00000230: 369b babd 9fff 793c 6d26 433e b2b0 7f3e
00000240: e66a 883e 5159 66be f7c2 c73d 6041 223c
00000250: fe2a d7bd 1589 fcbe 7ac9 df3e 5857 91bd
00000260: 3cae 1e3e 3bbf 98bd 1fc7 a83d e345 89be
00000270: f5e1 ff3d ca7b 1d3e 2d63 ae3d c091 a9be
00000280: bf6b 0f3e 162a 863c c39d 2bbe b25d ba3e
00000290: 2f30 263e e435 1fbf 8275 06bf 8da2 823d
000002a0: e656 a73e 8d26 0abe 05f4 c0be bbb7 5cbd
000002b0: e25b b8be 25e1 af3d 24fd b73e 83cb e7be
000002c0: f396 e9bd 3a11 853e c985 073e 5fea 7dbd
000002d0: 2d25 e83d 7f1c 3c3e c93e 1b3e 79ae 04be
000002e0: e1dd 45bd c9e8 143e c21d 90be a4cb 6ebe
000002f0: 1b98 803e 485b 553e 6ec8 883d 599a 103e
00000300: 0d2e c4ba 3e2f a13d b341 ef3d 8f3c a2bd
00000310: c46a bdbe c288 96be e199 8c3e 3e36 8a3e
00000320: 986f 0c3e 383e a7be fd64 06bf 8ce5 11bf
00000330: 1221 06bd eff3 493e 5200 703e 1001 003e
00000340: 0ea9 8cbe 587d e1be 6ad3 593d 3978 b83e
00000350: d139 00be cf9f a4bd 0555 303e e42f 32bd
00000360: 1639 99be 3809 563e c629 18bc b9cf ffbd
00000370: 6b45 1abf 4109 403d 3b7b d63e 70e5 453e
00000380: 0620 56be 353d 8dbe ceb5 b9be 604f 6d3e
00000390: 4e84 3a3d 73f5 803e 1e6d 993e db69 473c
000003a0: f020 58bd b2ee 67be 7f68 d1be da6a 38be
000003b0: 4f0e 193e 7285 1dbc 7d34 8cbe d6bf a3be
000003c0: 6b35 1d3e 16ee 28be 0142 22bf ad74 3f3e
000003d0: 5ff5 e73d f709 903e 6f60 e43a fb64 3e3d
000003e0: f543 c73c 32c6 d4be 3b87 9abe 0402 11bf
000003f0: 1b5b 8a3d 578d 8dbe fd67 fc3d 9c19 e23d
-0.013482997 0.15428662 -0.26557347 0.030265953 0.30621225 -0.31513017 0.016367972 0.14060561
0.26813957 -0.09265131 0.21959372 -0.056211468 0.2754326 0.08663836 -0.35065046 0.17045833
-0.15923955 -0.2147112 0.029410053 0.30519292 -0.31231424 -0.12083821 -0.43367884 -0.36653775
-0.27897528 -0.33689862 0.43490842 -0.3489952 0.15801962 0.042493835 -0.13184269 0.27219388
0.05290834 0.22200234 0.029150322 -0.19479813 0.10592207 -0.076082096 0.07799823 0.11798697
0.057605527 -0.13309841 0.036119305 0.024886329 0.21625397 0.0032269456 -0.36924815 -0.18056016
-0.23063454 0.12280991 0.118521094 0.26598436 0.12109257 0.055606075 0.21386619 -0.1363787
-0.10905727 -0.13159348 0.1416289 -0.20876315 0.12846914 0.03382891 0.38140437 -0.16648355
-0.25861347 -0.28760454 0.22015573 -0.25359547 -0.0037658652 -0.22049326 -0.36720762 -0.46594885
-0.256344 0.13262343 0.031342737 0.19281884 -0.15720746 -0.2950659 0.13076726 -0.079835534
0.24148771 -0.09666441 0.25898096 -0.2875176 -0.21143366 0.13108921 0.016824879 -0.13843006
0.002749297 0.24985272 -0.36238107 0.012574566 0.5624356 -0.42584428 -0.5256536 -0.19862728
0.08018444 -0.10624098 -0.2920161 -0.18583246 0.11907477 -0.019432092 -0.41905603 -0.6415202
-0.6333746 -0.094127625 0.43147218 0.15596783 0.37638345 -0.0724491 -0.53757226 -0.108724885
-0.08891495 -0.40219855 -0.47953677 -0.37194112 -0.1789394 -0.100296445 0.0430563 -0.25002044
-0.24060373 -0.33079517 -0.27739677 -0.13732931 0.13999642 -0.28467932 0.263216 0.16710067
-0.3723635 0.31046155 -0.22842288 -0.30016282 -0.32402965 -0.59771705 0.13387778 -0.045909148
0.14945143 -0.31383544 0.17663953 -0.15744461 -0.091116354 0.015258699 0.19057627 0.24969748
0.26644057 -0.22495009 0.097539835 0.009903282 -0.10506247 -0.49323335 0.43708402 -0.070967376
0.15496153 -0.07458349 0.08241104 -0.26811132 0.1249427 0.15379253 0.0851501 -0.3311901
0.14005946 0.01637749 -0.167594 0.3639961 0.16229318 -0.62191606 -0.5252305 0.0637866
0.32683486 -0.13491268 -0.37686172 -0.053886157 -0.360076 0.08587865 0.35935318 -0.45272455
-0.114057444 0.25989705 0.13234629 -0.06199109 0.11335216 0.18370245 0.1516067 -0.12957181
-0.048307303 0.14541925 -0.28147703 -0.2331987 0.25116047 0.20835602 0.06678854 0.14121379
-0.0014967337 0.07870339 0.11682453 -0.07921707 -0.36995518 -0.29401213 0.2746115 0.26994509
0.13714445 -0.32664657 -0.52497846 -0.56990886 -0.032746382 0.1972196 0.23437622 0.12500405
-0.27472728 -0.44040942 0.053180136 0.36029223 -0.12522055 -0.080382936 0.17219932 -0.043502703
-0.29926366 0.20901954 -0.009287303 -0.12490792 -0.60262173 0.046883825 0.41890892 0.19325805
-0.20910653 -0.2758576 -0.36271518 0.2317481 0.04553633 0.25187263 0.29966062 0.012171234
-0.052765787 -0.22649649 -0.40900037 -0.1800951 0.14946865 -0.009614335 -0.27383795 -0.31982297
0.15352409 -0.16497073 -0.63381964 0.18696852 0.11326098 0.28132603 0.0017423759 0.04648302
0.024324397 -0.4155746 -0.30181298 -0.566437 0.06755658 -0.27646896 0.12324522 0.11040041

0.bias f4 [32]
00000000: c215 11bf 13ee b0be 48c4 14be 08af 00bf
00000010: 6501 0dbf 8b16 b3bd fe69 a1be da00 16be
00000020: 130b cbbd 472c 10bd 5d29 19be 67a9 7cbe
00000030: f877 9dbe 2dda fc3d 568e e6be 35fc 7ebd
00000040: 8146 8dbe 2e41 13be 663d 1dbd 7dad ecbd
00000050: 762f dfbe d92d 54be da7a 7cbe ef98 ffbd
00000060: de5c ddbd e0bf e2bd f593 00be 5c3e d2bd
00000070: 20bf a3be 067b 78be e125 23be a005 39be
-0.56673825 -0.34556636 -0.14528 -0.50267076 -0.5508025 -0.08744534 -0.31526178 -0.14648762
-0.099142216 -0.035198476 -0.14957185 -0.24673997 -0.3075559 0.12346301 -0.4503047 -0.062252242
-0.27592853 -0.14380333 -0.038388632 -0.11556528 -0.43590897 -0.20720614 -0.24656239 -0.12480342
-0.10808729 -0.110717535 -0.12556441 -0.102658 -0.31981754 -0.2426568 -0.15932418 -0.18068552

4.weight f4 [64, 32, 3, 3]
00000000: c1de c33c c42d 93be 20c9 e4bd f9c1 f33c
00000010: 4695 43bd a689 853d 96ce 20bd 0390 88bd
00000020: 0fcc b43c 6532 83bc d658 c3bd c382 87be
00000030: 662a 173e 8d07 a0be d994 50be 00db 0d3e
00000040: 09dc 54be a0e2 07bd 4e99 1a3c a64c b8bd
00000050: 4762 cebd d631 92bc 9b9d 3e3d b9fd b2bc
00000060: 46ae 37bd 42b6 a13c f625 883d fb9a c3bd
00000070: 53af 21be 0cd7 4abd 1d07 72be a81d 49be
00000080: 718d acbd de2d c1be 13e1 43be 2537 153d
00000090: 5478 1a3d 39c5 43be 0844 06be f48b 1b3d
000000a0: 3c0c 70be c112 083d e2fc 3bbd 18b1 80be
000000b0: 54ed bfbc bfad babc dea5 acbe b9a8 bfbc
000000c0: 28dd 53be 314c 9bbd 5db4 3d3d 3ac6 52be
000000d0: 441e 50bd 7856 453e 455b 42be 5f59 8fbe
000000e0: 3c8b 6bbd 7413 47be ebf3 193b fb13 463d
000000f0: 35dc 46be a5d0 b83d 33df 783d c008 2dbd
00000100: 0b77 bcbc 08d6 13bd c3a6 113c c130 e3bd
00000110: e75d 5a3d 68f3 a23d 4492 7f3d c158 2d3d
00000120: ac85 bbbb 1ffe 54be b737 35be ded4 2c3d
00000130: 741d 60be d4f2 ec3d 2a3b 13bd 4cd3 1abd
00000140: bc92 df3c 3c07 95be 0e79 65be 8965 50be
00000150: 94fc edbe 203e 53bc 4fd2 12bd 3b33 89be
00000160: 7b0c 7b3d 9bb8 c53d 178b 7c3d 03b3 6cbd
00000170: 4302 a7bc 34f3 9c3d cded 16bc 6202 893c
00000180: 5673 d33d c331 a93b f0d5 03bc c7dd 2a3d
00000190: 5ba9 433d c3ff 62bb 0ac9 73bc 688c 83bc
000001a0: 3db3 c23d f925 37bd d0cc 073d 94c2 ec3d
000001b0: afef bbbd 3329 203c 88a8 31bd 2832 013e
000001c0: f38b 0cbd 406f fb3d f0bb 143e 4a9c a33d
000001d0: d198 a73d 3e81 4e3d fb69 87bc 3d63 163d
000001e0: 377e 993d 8f46 29bd 5de6 3cbb 660c a93d
000001f0: c518 823d 0d2c be3c deb2 33be 7726 50be
00000200: 102a efbd f0ec b43d 97f1 c1bd 65d2 c2ba
00000210: 4cc6 923d eb79 26bc 0d7c c6bd 1124 dfbc
00000220: 4486 1dbe 6570 efbd 271e 8d3d 7ea2 1ebe
00000230: 52e2 633d 2228 90bd adb7 8bbd 455c f53d
00000240: eb2d d53c 734c 50be 8f42 2bbe 006e b63d
00000250: 3eeb 9ebe fdb3 9a3d 741f 8d3d 6ac4 6cbd
00000260: 7bdf 083d e5ef d8bd 6942 6bbe 9ee0 e8bd
00000270: a7c9 c5bd 5977 88be 9a7e 21bd fac6 4dbe
00000280: 3162 12be a436 143d fe97 e23d ff47 38bd
00000290: bd06 ba3d 29d8 d23d c238 e73c f289 973d
000002a0: c772 943d 3509 993d 116f 703d e690 333e
000002b0: b208 7fbd 79e8 2abe 3a6c 023e c13c b2be
000002c0: 3fa0 243e f2e1 083d 8b5e 48be 1005 053e
000002d0: a4c1 18be 2b0b 26be 0a8b 08bc 55dd 7dbe
000002e0: 7dd1 c7bc 9b16 c03d 470a d1be e567 0f3e
000002f0: dda5 8b3d 7971 4cbe fd34 6ebe 0e45 70be
00000300: 8d19 c43d e43b 96be f372 5fbe b6d0 163b
00000310: d507 abbe aaba 7bbd 4f10 15be 812f d5bd
00000320: de92 47bd f63c 81bd 2bb0 74bc 5589 ae3d
00000330: f0eb 76bd 3c61 dc3c baea e53d 7af1 873d
00000340: b567 6bbe 119e 0b3c 1708 893d 0a6e 7bbe
00000350: b966 17bd 4ef2 6bbd 60f3 52be f821 0e3e
00000360: 18a6 413d 58f9 51bd 7228 083c 826c 223d
00000370: 73d4 30bd d843 ec3d 6df3 193d 0fb6 7fbd
00000380: aa62 ef3d 2ad2 32be b65e 5ebe 2bbb 323d
00000390: 4ee4 36be 60fa c2bd c8df 90bd 5ba8 b8be
000003a0: 616e 7f3c f384 933d 8796 203d 0fca 323d
000003b0: a38d 173d e61b 993d 63c2 18bc 1942 5ebc
000003c0: fc82 db3c bb8b aa3b 28a6 b93d 739a e2bd
000003d0: 6e9d d5bd ae73 bbbd bb7f ba3d 965d 69bd
000003e0: 2a9d e3bd 2cdc e03d 61c1 39bb 2059 33bd
000003f0: c9db 363d 92f7 bf3c 7123 8cbe 2b37 6b3d
0.023909928 -0.28745854 -0.11171174 0.02975558 -0.04774978 0.06520395 -0.039259516 -0.06668093
0.022069959 -0.01601524 -0.095384285 -0.2646695 0.14762267 -0.3125576 -0.20369281 0.13853073
-0.20787062 -0.03317511 0.009435965 -0.089989945 -0.10077339 -0.01784603 0.046537023 -0.0218495
-0.044843934 0.019740228 0.066478655 -0.095510446 -0.15789537 -0.04952149 -0.23635526 -0.19640219
-0.08425415 -0.37730306 -0.19128828 0.036429543 0.03771241 -0.19118203 -0.1311189 0.037975267
-0.23442167 0.03322101 -0.045895465 -0.25135112 -0.023428597 -0.022787927 -0.33720297 -0.023395883
-0.20689833 -0.07582892 0.046314586 -0.2058343 -0.050810114 0.19271266 -0.18980129 -0.27997872
-0.05750583 -0.19441015 0.0023491334 0.0483589 -0.1941994 0.09024171 0.060759734 -0.042244673
-0.023005983 -0.036092788 0.008889857 -0.110932834 0.05331221 0.07956582 0.06239535 0.04232097
-0.005722722 -0.20800065 -0.17697035 0.042195193 -0.21886235 0.11569753 -0.035945095 -0.037799165
0.027291648 -0.29107082 -0.2240946 -0.20351233 -0.46481764 -0.01289323 -0.035845097 -0.26796898
0.0612912 0.09654351 0.061656084 -0.057787906 -0.02038682 0.07663575 -0.00921197 0.016724769
0.10324733 0.0051634028 -0.008046612 0.04171541 0.04776893 -0.003463731 -0.014879474 -0.016058162
0.09506843 -0.044713948 0.03315431 0.1156055 -0.091765754 0.009775448 -0.043373615 0.1261679
-0.034313153 0.12277079 0.14524817 0.07988794 0.08183444 0.050416224 -0.016530028 0.036715735
0.07494777 -0.041327056 -0.002882383 0.08254318 0.06352381 0.023214364 -0.17548701 -0.20327173
-0.11677945 0.08834255 -0.09469908 -0.0014863728 0.071667284 -0.010160903 -0.096916296 -0.027238877
-0.1538325 -0.116913594 0.06890517 -0.15491673 0.055635758 -0.07038905 -0.06822143 0.1198049
0.026022872 -0.20341663 -0.16724609 0.089076996 -0.3103885 0.07553861 0.06890765 -0.057804503
0.033416253 -0.10592631 -0.22974552 -0.11370967 -0.09657603 -0.26653555 -0.039427377 -0.20095435
-0.1429527 0.03618492 0.110641465 -0.044990536 0.090833165 0.102951355 0.028225306 0.07399358
0.072484545 0.07472459 0.05869967 0.17535743 -0.062264152 -0.16690244 0.12736598 -0.34811977
0.16076754 0.033418603 -0.19567315 0.12990212 -0.14917618 -0.16215198 -0.008333931 -0.24791463
-0.024391884 0.09379312 -0.40828153 0.14004476 0.06818745 -0.19965161 -0.23262401 -0.23463842
0.09575186 -0.29342568 -0.21821193 0.0023012585 -0.33404413 -0.061457314 -0.14557002 -0.10409451
-0.048724048 -0.063104555 -0.01493458 0.08522288 -0.0602836 0.026901834 0.11226411 0.06637855
-0.2298878 0.008521573 0.06690996 -0.24553695 -0.0369632 -0.057604127 -0.20600653 0.13880146
0.04727754 -0.051263183 0.008310424 0.039654262 -0.043171357 0.11536378 0.037585665 -0.062429484
0.116887406 -0.17462984 -0.21715817 0.04363553 -0.17860529 -0.095204115 -0.07073933 -0.36065945
0.015590281 0.072030924 0.039206054 0.04364973 0.03700031 0.07476024 -0.009323689 -0.013565564
0.026795857 0.0052046455 0.09064895 -0.11064615 -0.10430418 -0.091529235 0.09106394 -0.056974016
-0.11113961 0.109794945 -0.0028344023 -0.043786168 0.044643197 0.02343348 -0.2737079 0.05742566

4.bias f4 [64]
00000000: 3470 183e f7e3 d53d 6754 48bd bea5 d03d
00000010: 37e1 85bc 2e35 b8ba 292e f53d 022e a3bd
00000020: 37a5 8e3e 2136 f63c 6442 48bc deee 8e3b
00000030: c82f 24bc c4db aabd 8595 8ebd bbbc dfbd
00000040: f996 abbc 747f b3bc cd23 40bd cfb5 873c
00000050: 951b bbbd c87e fc3d 8214 ad3b 7c15 f5bd
00000060: 5d13 9ebc c413 3d3d c9ad ccbc 3526 ac3b
00000070: 137b 3ebe 6b37 0bbe a503 1c3d 0caf 96bd
00000080: 028c 5e3e d2c5 c53d e4f9 963c d8ae 95bc
00000090: cbec c1bc 718a 97bd a1f4 753d 486c 44be
000000a0: 7308 8ebc 0a36 6ebd 1a51 0abc 5c46 dbbd
000000b0: 977a b8bd 2c63 06be 7927 46bd 5714 b53c
000000c0: b702 b8bd 3ece 0c3e c2ee cebd 9ae0 363e
000000d0: b775 a8bc 4a0f 51bc c2b4 d2bd aa07 963d
000000e0: d2be 52bd 097b 6abd e9c8 94bc 2d12 b73c
000000f0: c884 cd3d aac4 eebc 0232 b1bd 614f 4ebd
0.14886552 0.104438715 -0.048908617 0.10187863 -0.016342742 -0.0014053935 0.11971695 -0.0796776
0.27860424 0.030055108 -0.01222286 0.0043619713 -0.010021158 -0.08342698 -0.06962112 -0.10924669
-0.020946013 -0.02191136 -0.046909142 0.016566185 -0.0913612 0.12328869 0.0052819857 -0.119669884
-0.019296343 0.046161428 -0.024985211 0.005253578 -0.18601637 -0.13595359 0.038089413 -0.07357606
0.21733096 0.09656872 0.018429704 -0.018271849 -0.023672482 -0.073994525 0.06004775 -0.19181931
-0.017338013 -0.058157004 -0.008442188 -0.10706779 -0.09007757 -0.13123769 -0.048377488 0.022104425
-0.08984893 0.1375055 -0.10104133 0.17859116 -0.020563943 -0.012759993 -0.10288383 0.073256806
-0.05145151 -0.05724624 -0.018162208 0.022347534 0.10035092 -0.029146511 -0.08652116 -0.05036867

8.weight f4 [128, 64, 3, 3]
00000000: 3b0f 70bd 410f b23d 354d 863d 5a32 6dbd
00000010: 8cf0 023a 39f3 0a3d 6474 83bd 325e fa3c
00000020: 6513 c13d 2c20 e53d 045d 783c 0a17 163d
00000030: 0711 c53d 1a6c 79bd cd5d 483c 7fa4 fcbd
00000040: 73f5 51be 6986 d43a f60d 1cbe 8243 7cbd
00000050: a437 af3d f4b5 14bd 03b4 0d3e cdc1 6b3c
00000060: 4998 41be 9a13 03be d7ce 2ebd 47b8 a5bc
00000070: 4514 36bd c99f ff3b 459d efbc d7e9 c0bb
00000080: 3ea7 23bb 73b1 a239 2155 8e3d 71b7 7dbe
00000090: dfaa d53d ba19 f9bc 2680 093e 7223 d53d
000000a0: bbad 973c 5ad3 1f3d 81da 7cbd 7dcb a4bd
000000b0: 5e71 263e 8284 b1bc 10c2 ebbc b572 963d
000000c0: 3b94 1bbd 8b38 95b6 bc3e a93d 8e31 973c
000000d0: 9178 5b3d 79f5 a6bc d0e8 0bbe 8cb4 cdbb
000000e0: 4fc9 babc 0f06 c5bd e34d 8ebd ee09 60bd
000000f0: 44d2 2d3e f2c8 83bc 91e5 3a3d e6ed c33d
00000100: 531d d53c 7470 833c d748 08bd b2f4 053e
00000110: a02f cebc 2a65 0dbe 7603 2dbd 1262 50be
00000120: d922 03bd f46f 2f3d e815 0f3b 2b7c 5d3b
00000130: 24d1 9b3d dbcc 523e 4a19 2dbc 7545 b93d
00000140: b21f c8bd d0c8 7a3d c367 e1bb 5c3b cc3d
00000150: 5ce3 be3d 0707 17bd 279e 7fbd 06c3 55bd
00000160: 118b 5fbe a796 863d 7a16 023d 99c7 c5bc
00000170: eb7b 093e 2c66 853b 5139 29be 6565 c9bd
00000180: 8d4d 99bd 4fcc 73be af7f 6a3d 9bb6 cdbd
00000190: 67cd 02be 6a75 8f3b 7224 35be dde2 993c
000001a0: 99b2 153e 0823 61be bb69 25be 2dbb cb3c
000001b0: cf12 d0bd 553a 1d3d 2f02 013d f455 83bd
000001c0: a8be 123e 6e9f 393d 6c57 b2bd edf9 dcbc
000001d0: 3641 6cbe 8caf c73d 5488 91bc e53a 83bc
000001e0: 5473 d3bd fe04 6a3c 0f0e 03be 38c1 fc3c
000001f0: 6fd2 103e f359 5abe e09c 323e bb60 01bd
00000200: 26cf 78bb a52a ca3d c46c 233d a1ac 65bd
00000210: 0ba1 52be 979d e5bd 5e70 9ebe f8c1 36bd
00000220: 7035 1dbe a06a 80bd 3781 063e 345b 34be
00000230: 4c2e 10bc 4edd c3bc 29ab 06be 3ba5 3ebe
00000240: 8126 fb3d e8d6 423e af82 96bc 4798 0f3b
00000250: 4ef2 8abe 84e6 173e e54a 14be 278c 7fbd
00000260: 3ee4 e53d 2ecb 20bd 1580 f7bc f326 7dbd
00000270: dbf3 35be 264c 5f3d 31db 0e3d bfad 41be
00000280: f124 18be b97a a63d 13fd d13d 601b b33d
00000290: 14ff 25bd 0888 f83d cea9 d5bc 97c3 03be
000002a0: 2811 20be ff27 5dbd e743 85bd 7f65 54bb
000002b0: c5ca ad3b e941 1c3e 45d6 003e 7b78 97bd
000002c0: 027c a13d 09e9 7bbd 328b 91bd 064c fb3d
000002d0: 457b 653d e2fc a9bd e73b 143c e06e d93d
000002e0: 1900 88bd 4318 64bc 1053 e4bd 7165 a2bd
000002f0: c3b8 31be a096 02be 1887 ac3d 2461 e83d
00000300: d9b1 ccbd 905a a5bc ac3f 383e ef40 fdbd
00000310: 8a63 c2bc d3c7 9bbd fb1d acbd e8a0 01bd
00000320: 51ef 883d 0f62 f8bd 5bd0 dbbb ba9b dcbd
00000330: 7c20 67be 02c6 aabd 505e c13d 9228 e23d
00000340: 6f3b 8c3d 13e3 843d 4664 fc3c d3da 85bc
00000350: 6b85 89bd 4b78 8cbe e5f5 98bd 0953 c5bc
00000360: f428 79bd 2817 e5bd f4f2 a3bd f1bd c93d
00000370: c91e 763d e20c 5f3d 985d e9bc 943a 6cbe
00000380: 024c 48be a08a ecbd 0291 11be a2ac 3e3e
00000390: e973 a9bc 6bae 3cbe 44fa 363c 8945 bbbb
000003a0: bb1f d2bd cdf2 00be e053 fabd 39c8 4dbd
000003b0: ca2b d3bc 3375 b53d ba37 c63d c55e 383b
000003c0: fe66 b8bd 8cba 6e3a 7446 1fbe 600f 17be
000003d0: 4fa1 29bd cada 973c 912d 8abd 0f7d 953d
000003e0: 8ebb 48bd 1fc8 08be 849e ae3b a76a 81bd
000003f0: dec4 be3c 3013 1d3e 13ea 553d d671 aebd
-0.058608275 0.08694316 0.06557695 -0.057909347 0.0004994951 0.03392336 -0.06418684 0.030562494
0.09427527 0.11187777 0.015158895 0.036643066 0.09622388 -0.06089411 0.012229395 -0.12336063
-0.20503788 0.0016214374 -0.152397 -0.061587818 0.085555345 -0.036306337 0.138382 0.014389467
-0.18905748 -0.12800446 -0.042677727 -0.020229472 -0.044452924 0.0078010303 -0.029249797 -0.005887251
-0.002497151 0.00031031258 0.06949831 -0.24777009 0.10432982 -0.030407775 0.13427791 0.10407151
0.018515458 0.03901992 -0.06173182 -0.08046625 0.16254184 -0.02166963 -0.02877906 0.073460974
-0.03798316 -4.4471285e-06 0.08263919 0.018456247 0.053581778 -0.020380722 -0.1366303 -0.0062776264
-0.02280107 -0.09620296 -0.069484495 -0.05469697 0.16974741 -0.01608703 0.045629088 0.0956686
0.02601496 0.016044833 -0.03327259 0.13081625 -0.025169194 -0.13808122 -0.04223963 -0.20349911
-0.032015655 0.042831376 0.0021833126 0.0033795934 0.0760825 0.20585959 -0.010565111 0.09046451
-0.097716704 0.061226666 -0.0068788244 0.099722594 0.09320709 -0.036871936 -0.062406685 -0.052187942
-0.21830393 0.065717034 0.031759717 -0.024143027 0.13426177 0.0040710177 -0.1652577 -0.098337926
-0.07485495 -0.23808406 0.057250675 -0.10044595 -0.12773667 0.0043780105 -0.17689684 0.018784935
0.14618911 -0.2198602 -0.16153614 0.024869526 -0.101598375 0.038385708 0.031496223 -0.06412879
0.14330542 0.04531806 -0.08708081 -0.026974643 -0.23071751 0.0975028 -0.017765202 -0.016019294
-0.103247315 0.014283417 -0.12798332 0.030853853 0.14142774 -0.21323375 0.17442656 -0.03158639
-0.0037965267 0.09871415 0.03989865 -0.056072835 -0.20569246 -0.112116985 -0.30945104 -0.044618577
-0.15352416 -0.06270337 0.13135229 -0.17612916 -0.008800101 -0.023909237 -0.1315123 -0.18617718
0.122632034 0.19027293 -0.018372862 0.0021910833 -0.2713799 0.14834028 -0.14481695 -0.06238952
0.11225174 -0.039256267 -0.030212441 -0.061804723 -0.17768805 0.05451598 0.034877006 -0.18913935
-0.14857842 0.08128876 0.10253348 0.08745456 -0.040526465 0.12135321 -0.026081946 -0.1286758
-0.15631545 -0.05399322 -0.06507092 -0.003240913 0.005303713 0.15259518 0.12581737 -0.07396027
0.07884981 -0.061501537 -0.071066275 0.1227036 0.056025762 -0.08300187 0.009047485 0.10616851
-0.066406436 -0.0139218 -0.111486554 -0.07929505 -0.17355637 -0.12752771 0.084242046 0.11346653
-0.09994859 -0.020184785 0.17993039 -0.12365901 -0.023729105 -0.07606473 -0.08404156 -0.031647593
0.06686271 -0.12128078 -0.0067081875 -0.1077189 -0.22570986 -0.08338548 0.09441817 0.110428944
0.068472736 0.064886235 0.030809533 -0.016339695 -0.067149006 -0.27435526 -0.07468776 -0.024087446
-0.06083007 -0.11186057 -0.08005324 0.098506816 0.060087953 0.054455645 -0.028487012 -0.23069221
-0.19560245 -0.11549878 -0.14215472 0.18620542 -0.020685153 -0.1842591 0.011168066 -0.0057150763
-0.10259958 -0.12592621 -0.12223029 -0.050239775 -0.025777716 0.088602446 0.09678598 0.002813266
-0.09004019 0.0009106777 -0.1555422 -0.14751959 -0.0414136 0.018536944 -0.06746972 0.07299244
-0.04900699 -0.1335759 0.005328955 -0.063191704 0.023287233 0.1533935 0.052225184 -0.08517806

8.bias f4 [128]
00000000: ba9c 6e3e 0676 113d 3ed1 8c3e c1bf bfbd
00000010: 994a afbc 540f 63bd 6205 cdbd 03e7 8cbd
00000020: b347 f93d 39e6 d9bc ae45 04bd 01ac 9dbd
00000030: 745d aebd ad91 2e3d a973 62bd 4e04 a2bd
00000040: 0100 84bc 8bcc f6bd 68e4 bbbd 0dca 4cbd
00000050: 5e8e c33d 8844 473d 10ad 7cbb 2c58 83bd
00000060: 5b1d 9f3c 292d 29be e704 cabd 6f9a afbd
00000070: a9d4 c83d 491b b9bc 0cd8 133b 81cf 2d3c
00000080: 9c0b efbc 4efd dbbb 04ac 2ebd 41a9 593c
00000090: 4bb0 e6bd bd33 bcbd a87c 90bd 8379 793e
000000a0: 9f5b c1bb b2a1 6abd bb87 cdbc 1189 7ebc
000000b0: dc9c f6bc 97d5 88bd eaf6 843e b1a6 683d
000000c0: e6ba a23c 31d4 083d e631 93bd acef 44bc
000000d0: a415 0dbc 294d 56bd 5431 bebc 364c 90bd
000000e0: b51f 81bc 0074 923d 6778 5ebd f882 debd
000000f0: a508 5e3d 025d 1c3e 402c 073d f2db 4d3d
00000100: add1 f1bb 0106 3dbd 9370 49bc cb9f 0dbd
00000110: e62c 4b3d c783 233e 8892 7abd de46 f63c
00000120: a18c 04bd 8546 debc c454 773d 5c6e a2bd
00000130: 1522 1ebe 2432 15bd 9e54 c43d af8d 253d
00000140: 1dee f83c 5896 343e c004 393d bc40 5bbb
00000150: e1aa cbbd d4fd a33d adce 05bd d467 1b3c
00000160: c1fa 01be cf67 d0bc b5a6 74bc 0569 9abd
00000170: 1394 9ebd ccfd 143d 05eb 63bc 78a4 84bd
00000180: 41c8 083e fcdf 32be 61ac cdbc b890 c5bd
00000190: b60c 603d 3692 30bd 2ca2 1bba 754d 66bd
000001a0: 3912 31bd e029 bebd a0ed d1bc 852c 863d
000001b0: 5ca5 8c3e 82b3 95bd 484d eabc ce2c 15be
000001c0: 1343 00bd e9f7 0fbe 6537 033e 067a 0fbe
000001d0: d54e 0cbd 7a01 cfbd da65 a7bd 9924 3dbd
000001e0: 00ec b5bd dff7 a83d 5466 66bd ee02 06be
000001f0: 3b6c 55bc e980 e9bc 276b a53d ce8e 95bc
0.23301974 0.035512947 0.2750339 -0.09362746 -0.021397876 -0.05543454 -0.10010792 -0.068799995
0.12171879 -0.026599037 -0.032293014 -0.07698823 -0.085139185 0.042619396 -0.055286083 -0.07910977
-0.016113283 -0.12050732 -0.091744244 -0.04999738 0.09548639 0.04864934 -0.0038555302 -0.06413302
0.019423177 -0.16521133 -0.09864216 -0.08574378 0.09806187 -0.022596018 0.0022559194 0.010608555
-0.02918034 -0.006713546 -0.042644516 0.013284982 -0.11264094 -0.09189556 -0.07055026 0.2436276
-0.0059008147 -0.05728311 -0.025089135 -0.015535609 -0.030104093 -0.06681364 0.2596963 0.056799594
0.01986451 0.033405486 -0.07187252 -0.012020033 -0.008611117 -0.05231968 -0.02321688 -0.07045786
-0.01576219 0.071510315 -0.054314043 -0.10864824 0.054207463 0.15269855 0.033001184 0.050258584
-0.0073797316 -0.046148304 -0.012294906 -0.03457622 0.049603365 0.15968238 -0.0611749 0.030063089
-0.032360677 -0.027133236 0.060383573 -0.07931206 -0.15442689 -0.03642477 0.09586452 0.040418323
0.030386979 0.17635477 0.045170546 -0.0033455333 -0.09944702 0.08007398 -0.032667805 0.009485204
-0.12693311 -0.025440125 -0.014932324 -0.07539562 -0.07743087 0.036374852 -0.0139110135 -0.064766824
0.13357641 -0.17468256 -0.02510661 -0.096467435 0.054699622 -0.043108188 -0.0005936946 -0.056226213
-0.04323027 -0.09285331 -0.025626004 0.0655146 0.2746991 -0.07309629 -0.028601304 -0.14567873
-0.031313967 -0.14059414 0.128141 -0.14011392 -0.034254868 -0.101077035 -0.081737235 -0.04617748
-0.08882904 0.08250403 -0.05624993 -0.13087055 -0.013026292 -0.028503852 0.08077078 -0.018256571

13.weight f4 [128, 128]
00000000: 98eb febd a55d ef3d 92d6 163e aa13 a63c
00000010: a7b9 6dbd 2888 833e 0b1a 023d 8840 3b3d
00000020: b7be f23d 532c 033d ae44 5abe ec08 42bc
00000030: 5f7b 21bc 1be8 1fbd 3193 1e3e 172b 813d
00000040: 20bb d03c 9f05 fabd 769a 533d ccd7 883c
00000050: 0f45 473c 84e7 94bc 212e 4c3d 8bf0 033e
00000060: 8071 c2be 217c eabd 8174 cf3d 457c e4bc
00000070: fabf 623d 2863 ab3d cd5b 8d3d 8eb1 2b3a
00000080: 674b f63d bc4e a7bd 5351 9bbe fd20 86bc
00000090: 1770 d6bb 8588 85bd b939 303c bba1 6c3e
000000a0: 68d8 91bd 713d 78be 042b 37bb 0441 863d
000000b0: 39f9 cd3d a3bd 1ebd e10b 193e 693f 37be
000000c0: 6204 853d fe5a 1abd 1fc2 933c fbcd ccbc
000000d0: cc36 823d 3f19 373e 7e7f 4bbd 6c29 8abd
000000e0: ee41 e5bd 998a 503d 5199 dc3d 8e27 ed3c
000000f0: a206 993d 7039 083e 8825 c83d e772 83bd
00000100: 5b9e 583d 1835 343e 8010 44bd 4a91 67bd
00000110: 31ee 0a3e 9112 373e 8fd9 b03d 4215 283e
00000120: 0d2b 06be 38ec b43d 08a4 9f3d 7ded 18bc
00000130: b6fd 5c3c b11b 833d e7d4 083e 336a 05bd
00000140: c264 7dbd 3f57 163e ccb5 33be ca50 453d
00000150: 6d04 bd3d f79a 223e cfb6 3dbe ae8b f7bd
00000160: 45ee 5cbd 5428 8bbd 0886 ae3d 879f f4bd
00000170: c73b 903e 401d b83c d34b 213e 18d3 863d
00000180: 0527 103e 9024 31bd 5696 0bbe fa5d 81bd
00000190: 0714 c23d 7504 213c c5ef 13bd d5d0 04be
000001a0: a9f4 543d 4f58 05be b2e2 bcbd de26 f83d
000001b0: b3b0 003d 2777 3fbe 99ec 52bc 46f4 a8be
000001c0: 7ce9 35bd 76f1 e83c e58c 0f3d ab0b 933d
000001d0: 51b7 40be a2a4 b53d a8b1 09bc 83c2 73bd
000001e0: 1fad 1cbd 683a 0b3e 1bff 14be e8c1 0fbe
000001f0: 5769 21bd 8c62 a13d c904 f33c c0f8 57bd
00000200: b0fd 0c3d 9a44 043e a65f 17bd e47b 423d
00000210: a7fa 873d b208 0a3e c2ea 0e3c a92b 9cbc
00000220: 67d3 7e3d af3a 28be 57e6 77be 5edd e03a
00000230: bda8 2fbd 732a 2c3e c95d afbc 0749 963d
00000240: 07cb 76bd d574 cb3d 75d5 16bd cdb7 19bd
00000250: baf9 44be 1e7f 72bd bedf ca3d 8a71 663d
00000260: 21a2 aebd 79d5 84bd 34e4 e0bb 49c4 1abe
00000270: e2d7 393c 0a3c 923c 8f58 2bbd 310c db3d
00000280: dc9f 273d e8d4 30be d555 643d f780 5ebd
00000290: 2880 4dbd 7c3c bbbc d231 33bd b530 1cbd
000002a0: 0743 463d f39d 6ebe 8e77 96bd d008 0e3d
000002b0: ec1b 76bb 7a63 013c c4f1 be3d 5580 b8bd
000002c0: 0f53 d8bd 8250 5fbd 648d 56bd cd16 f5bc
000002d0: 68e6 973c 564e 933d 6f44 20be 3a8f e2bd
000002e0: 3991 9dbd 8f29 8c3d ce8d 013e 909e 05be
000002f0: 9ee1 8c3e 5463 91bc 6d4e 2ebd 44c3 3d3e
00000300: b174 b3bb 4890 593e e785 a2bd b22c c23d
00000310: 3fcb fe3c fca4 39bd f20f 28be f604 21bd
00000320: 2c19 53be c179 b83d b6e6 183e 4f90 1abd
00000330: c42e 17bd dd41 08be 9675 483e 8996 52bc
00000340: 404f 053e 408e 6f3d 19bd 963d 1bb1 063e
00000350: 099d a03d a970 303c 945f 2ebd d37c 8b3d
00000360: 645c dbbd 3fa8 dcbc f8b0 a63d ce14 143e
00000370: 8e52 c0bd 89b1 d63d 0776 a53d 2a0a c83d
00000380: 3877 7bbd 897f 31be 6fe4 1f3e 35be 47be
00000390: 7f7a c23d 4674 a33c 4f9e 20bd d0a0 67be
000003a0: b2d9 f9bc 8e55 c33d 46b9 aebd 0dc5 383d
000003b0: 0c6a af3d bd4d b5bd 9220 2cbd 125b 8bbe
000003c0: 29db 023c 7593 3cbe 459c 42bd 5544 c4b9
000003d0: 663d 50bd b309 33bd 979b f8bc 6e73 233a
000003e0: f6cf b7bd 5271 873d a391 21be 397f d8bd
000003f0: 336b 0ebe 5452 8b3d 861f af3d f3bf debd
-0.1244728 0.11687783 0.1473029 0.020273048 -0.05803838 0.25689816 0.031763118 0.04571584
0.11852782 0.032024693 -0.21315262 -0.011842947 -0.009856074 -0.039039712 0.15485837 0.06307047
0.025479853 -0.122081034 0.051660977 0.016704462 0.012162461 -0.018176802 0.04984868 0.12884729
-0.3797722 -0.11449457 0.10129643 -0.027891288 0.055358864 0.08368522 0.06902275 0.000654959
0.120261006 -0.08169314 -0.30335483 -0.016373152 -0.006544124 -0.0652018 0.01075595 0.2310857
-0.07121354 -0.24242188 -0.0027949223 0.065553695 0.10057301 -0.03875507 0.14945938 -0.17895283
0.064949766 -0.037684433 0.0180369 -0.025000563 0.06358108 0.17880724 -0.049682133 -0.06746182
-0.11194216 0.050913427 0.1077143 0.028949525 0.07471968 0.1330316 0.097727835 -0.064184
0.052885395 0.17598379 -0.047867298 -0.056535043 0.13567425 0.17878176 0.08635246 0.16414359
-0.1310236 0.08834118 0.07794958 -0.009333965 0.013488224 0.06401766 0.13362466 -0.032571983
-0.06186367 0.14681719 -0.17549819 0.04817275 0.0922936 0.15879427 -0.18526767 -0.12087189
-0.05393817 -0.06794801 0.08521658 -0.1194449 0.28170606 0.022474885 0.15751581 0.06583232
0.14077385 -0.04324776 -0.13631567 -0.06316753 0.09476476 0.009827723 -0.036117334 -0.12970288
0.05199114 -0.13021968 -0.09222926 0.12116788 0.031418514 -0.18697797 -0.012873792 -0.32998866
-0.04441212 0.02843545 0.035046477 0.0717996 -0.1881993 0.08869292 -0.008404173 -0.059511673
-0.03825104 0.13596499 -0.1455044 -0.14038813 -0.0394071 0.078801244 0.029665368 -0.05272746
0.034421623 0.12916794 -0.03695645 0.047481433 0.06639605 0.1347988 0.008722963 -0.019063788
0.062213328 -0.16428636 -0.24208961 0.0017155816 -0.04288553 0.16813068 -0.021407025 0.073381476
-0.060252216 0.09934393 -0.036824662 -0.0375288 -0.19235888 -0.05920326 0.09905957 0.056260623
-0.085270174 -0.06486029 -0.0068631414 -0.1511394 0.011342974 0.017850894 -0.041832503 0.10695685
0.04092394 -0.17268717 0.05574592 -0.05432221 -0.050171047 -0.02285599 -0.043748684 -0.03813239
0.048403766 -0.2330244 -0.07347022 0.034676373 -0.0037553264 0.007897252 0.09323457 -0.090088524
-0.10562717 -0.054520138 -0.052380934 -0.029918099 0.018542483 0.07192676 -0.15651105 -0.110624745
-0.07693715 0.06843864 0.1265175 -0.13048768 0.27515882 -0.017747559 -0.04255526 0.18531519
-0.005476557 0.21246445 -0.07935696 0.09481181 0.031102775 -0.045323357 -0.16412333 -0.03931137
-0.20615071 0.09007598 0.14931759 -0.03773528 -0.036909834 -0.13306375 0.19576105 -0.012853273
0.13018513 0.05848527 0.07360286 0.13153498 0.07842452 0.010769048 -0.04257162 0.06810918
-0.107109815 -0.026935695 0.08139223 0.14461061 -0.09390746 0.10483081 0.080791526 0.09767564
-0.061392993 -0.17333807 0.15614484 -0.19506152 0.094960205 0.019952904 -0.039213475 -0.22619939
-0.030499313 0.09537803 -0.08531432 0.045109797 0.08565149 -0.08852718 -0.04202325 -0.2721792
0.007986822 -0.18415625 -0.04751231 -0.00037434945 -0.050839804 -0.04371042 -0.030347629 0.0006235157
-0.08975212 0.06613411 -0.15778212 -0.10571141 -0.13908081 0.06802812 0.085509345 -0.10876455

13.bias f4 [128]
00000000: fbd9 573e 20bc c23d 407b 153e 8704 863d
00000010: b648 fd3d d5db a23e 51af a63d 8029 063e
00000020: bfec 00bd f1c6 8a3d 2c07 853d 2374 123e
00000030: 4b65 b8bd e179 0d3e 52ab 983e 543d cc3d
00000040: 3f4d d1bd 649f b3bd d633 51bd f10e 5c3e
00000050: a1c6 d9bd c800 263e 004b 4d3e 5f86 77bd
00000060: e20b 703e 97d0 423e 3837 8b3e c3c4 74bd
00000070: 42ff 0a3e e74f 3d3d 447e 523e 8357 4a3e
00000080: d0c1 ab3e 94e5 60bd 2fe6 3a3e a949 f13d
00000090: 8be1 413e dbbd 653e 67a4 f53d 43b5 133e
000000a0: c3b2 313d dd89 883e 52a4 ca3d 9933 503d
000000b0: e668 383e 0411 a63d a23b 2ebd 1f87 333e
000000c0: 90d9 f93c feeb 173e 0ef9 7e3e 89ca 813e
000000d0: 6a5b 5fbd b64b a43d 143c 0d3e 59d4 733d
000000e0: f7ef 913e e529 1c3e d6c6 ce3d f01f 7b3d
000000f0: 6e2a 18bd 6cfa f63b ea3a cabc 3a28 973b
00000100: 1e9d 593e 7264 603e 77e3 813d c495 043d
00000110: 2a42 063e b9cd a83e a7c3 4f3e ab4a 863e
00000120: 2787 dc3d f1ac 413e addd 2ebd 66ee 543e
00000130: 9b26 91bd 4e24 ccbc 3df3 cd3c 184f 6a3e
00000140: 5daf 3d3e 20b2 a4bb dc2c 7b3c 017f b33d
00000150: e385 9e3e c768 883d 1d7b 4f3e 9d51 873e
00000160: a924 703b b1b8 3e3d 0191 393b f233 853e
00000170: 288e 2e3e 5dd5 133e 2a36 663b 9dc8 253d
00000180: ce7d d73d 5324 0b3e 1127 713e 28e1 8abd
00000190: c7bd 4a3d 8aff 8e3d 1c75 9cbd 67a8 873e
000001a0: 833e bd3d 3696 ce3d f26d b73d 2b61 c63d
000001b0: 6059 143e 45e5 bfbb f0f7 253e e28d 0f3e
000001c0: fad9 803d 4cb6 b13e adac 5b3e 4aab 113e
000001d0: 48ef 7d3c dd54 0bbd 5426 cf3d da0b 573e
000001e0: 8d7f 633e 3a4a 853d 64ae 2c3d ebba 963d
000001f0: bc10 2e3e 09a7 a13d 8eeb 583e 626b 183c
0.21079247 0.09508538 0.14597797 0.06543832 0.12367384 0.31808344 0.08138908 0.13101768
-0.03147578 0.06776226 0.064955086 0.14302115 -0.09003695 0.13816024 0.29818207 0.09972635
-0.10219812 -0.08770636 -0.051074825 0.21490075 -0.106335886 0.16211236 0.20048141 -0.06043088
0.23442033 0.19024883 0.27190566 -0.05975796 0.13573936 0.04621878 0.20555979 0.19759946
0.33546305 -0.054906443 0.1825187 0.11781628 0.18933694 0.22435705 0.11994248 0.14424615
0.04338337 0.2666768 0.09894623 0.050830457 0.18008766 0.08108714 -0.04253734 0.17532013
0.03049925 0.14836118 0.24899694 0.25349835 -0.05453054 0.08022253 0.13792449 0.059528682
0.2850339 0.15250356 0.10096519 0.061309755 -0.03714984 0.007537177 -0.024686296 0.0046129497
0.21251342 0.21913317 0.063422136 0.03236939 0.13111177 0.32969454 0.20289479 0.26228842
0.10767966 0.18913628 -0.042691875 0.20794067 -0.070874415 -0.024919655 0.0251404 0.22881734
0.18523927 -0.005026117 0.0153305195 0.087644584 0.30961522 0.0666061 0.20261808 0.26429453
0.0036642945 0.046562854 0.0028315189 0.26016194 0.17046416 0.1443686 0.00351275 0.040474523
0.10522042 0.13588075 0.23550059 -0.067812264 0.049497392 0.06982334 -0.07639524 0.26495668
0.09240439 0.10087244 0.08956517 0.09686502 0.14487219 -0.0058561885 0.16207862 0.14018968
0.06291576 0.34709394 0.2145259 0.14225498 0.015498944 -0.03401648 0.101147324 0.21000615
0.22216626 0.06508298 0.0421585 0.073598705 0.16998571 0.078931876 0.21183607 0.009302946

16.weight f4 [10, 128]
00000000: ba69 883d 30da e13d 01bf cf3d ab95 9fbb
00000010: ab05 64be 3289 4c3d 0760 123d 7fed de3c
00000020: 57b4 e6bc 279a c13d d73a 983d 763a 61be
00000030: 1078 21be aa74 8bbe 0c83 dabe b393 abbe
00000040: f840 7c3d c19e 35be e868 3abe 23c1 e73d
00000050: 8759 5dbc e6ba 013e daf4 1bbe 9321 c7bc
00000060: fc7f 0b3d 6d74 e03d c7b6 383e 4434 c9bd
00000070: fa0e d53d ac07 dcbd 425c 983d 73f7 20be
00000080: d0e2 c43d 01aa d8bd a30d 47be 435c 0d3e
00000090: db34 c93d fb53 cd3d e08e 423b a331 6cbd
000000a0: 2bde 87be 89d7 5bbc a933 2bbe 72bb fabb
000000b0: 4702 81be 0fd8 59be f82f 87be 0008 39be
000000c0: bf9f 58be 950a 12be f27a 843d 66cc 31be
000000d0: e523 f3bb a89b cf3c a45a b4be 908f 14be
000000e0: 42d1 953d 8cbe 8bbe f452 ae3d 14e7 67bd
000000f0: 2abc 8ebd dff4 02be 7b6a 9a3b cac0 cf3d
00000100: a7c8 083e cd3f c2be 64a4 cd3d 8b14 55bc
00000110: 18cc 893c ea3e a1be 7379 81bd 40e6 26be
00000120: 49d5 a43d 3e0f 45be 177a 33bd 7242 97be
00000130: 2f1b 4ebe d876 38be bef0 cabd 4749 76be
00000140: 3030 09be 6f00 b2bd 617c 16be 0db6 e83d
00000150: 2e8c 90bd 9336 203d cd41 c23d 723a 913d
00000160: e5bc c83d 2090 c23d dc3b b73d e4c8 26be
00000170: d207 ba3d fa6b 603d 91a3 77bd e353 6d3d
00000180: 2410 62be dd01 05bd 4922 40be d9c9 403b
00000190: 7190 e0bb d9ff e4bc 709b 67bd 04d3 39be
000001a0: c991 86bd c594 11bd e37a 90bd 8bcb 693d
000001b0: a632 923d 60e7 30be a27d dd3d 9cc2 acbc
000001c0: 3a48 2e3d 3c72 953d 2be3 51be b7a8 8a3d
000001d0: 3831 1b3d c698 613d 2fda bf3c 48e7 91be
000001e0: 924c 78be ea00 93be dad9 85bd e02d 8dbe
000001f0: b07c 52be daab 1dbe f868 093e e306 823c
00000200: 835c 003e d659 48be ab83 46be dd22 143e
00000210: fba0 80be 9764 b8bd 459f c9bd 5de6 b5bd
00000220: 8b48 9abe 39fa 4fbe 8f72 ad3c 579d 013e
00000230: eb67 eabd 7fc0 e93d 0b09 a53d d07e babd
00000240: 3036 84be 4d74 04bd 9552 02be cb0c f93d
00000250: f696 a1bd 3eb1 d7bd de13 213e 5a4f e7bd
00000260: ec09 883d fee3 c93d 5611 bc3d 0fcf a3bd
00000270: 58e8 44be 3034 ae3d e016 773d f5de 013e
00000280: 69c0 9c3d 80af 5cbe 71c9 ecbb 2f93 2dbe
00000290: d4a0 17be e8c8 803d 29ff 4ebe b61c 9cbe
000002a0: f020 84be 16d0 b13d 9cfb 00bd 0430 49be
000002b0: ac39 c53d ce7b 923d 43e3 94be 2558 7dbe
000002c0: 6da0 053e 4be0 a03d 23f2 9d3d 4be8 2c3d
000002d0: e154 8ebd c1a1 b3be f937 d23d b5f4 8cbc
000002e0: bc55 743d 8999 41bd d363 88be 66e4 43be
000002f0: 2232 8abe a977 23be a989 80be 4ccb eabd
00000300: 7815 ad3d b550 bd3d 39d7 1ebe 9eb5 58be
00000310: 1090 25bc 96d5 c03d 2129 bd3d a629 963d
00000320: cdea b73d 3655 643d 2e7f 99be fbf2 733d
00000330: 51c1 4ebd 5879 29be 3764 13be cca7 0b3d
00000340: f428 4d3d b7fa c7bc faef 1abe eec3 c23c
00000350: 0721 ee3d d508 87bd a800 32be 3af5 48be
00000360: f267 95be 05c8 22be af69 13be f5d6 1b3e
00000370: f653 0cbe fb06 d63d d694 bebe 59ee 66be
00000380: 59a4 b23d 9ecd 6f3d 6de6 0e3d 9afe 56be
00000390: 8a4f d3bd bc59 1fbe fbb6 d7bd ad9f e4bd
000003a0: f7ad 5ebe 1ccb 2ebe c2c8 1ebb d5bd 3fbe
000003b0: 3dc1 85bd eec4 f83d 3db9 d9bd 2bd1 ca3d
000003c0: 1422 b4bd 4354 ed3d 8c22 453d 9ead efbd
000003d0: 4f81 10be 1853 e8bd c0c6 44be 1dc3 f83c
000003e0: 418c be3d 8b86 a53d 95da f2bd b279 a23c
000003f0: d0b6 833d cb9e 81be 57b5 eebd 23cd a1bd
0.06660791 0.11027944 0.10143853 -0.0048701367 -0.22267787 0.049935527 0.03573611 0.027212856
-0.028162165 0.0945323 0.07433098 -0.21994957 -0.15768456 -0.27237445 -0.42678106 -0.33511123
0.061585397 -0.17736341 -0.18204081 0.11316135 -0.0135101145 0.12668952 -0.15230122 -0.024308002
0.034057602 0.109597065 0.18038474 -0.09824422 0.10403247 -0.10743651 0.07439472 -0.15719394
0.096135736 -0.10579301 -0.19438796 0.13804726 0.098245345 0.10025784 0.002968721 -0.057664525
-0.26536688 -0.013418087 -0.16718926 -0.0076517398 -0.2519705 -0.21273826 -0.26403785 -0.18069458
-0.21154688 -0.14261849 0.064687625 -0.17363128 -0.0074200504 0.025342777 -0.35225403 -0.1450789
0.073153034 -0.27293813 0.08511916 -0.056616858 -0.06969483 -0.12788723 0.0047124005 0.101441935
0.13357793 -0.379393 0.10041121 -0.013005386 0.016820952 -0.31493312 -0.06321993 -0.16298771
0.080484934 -0.19244096 -0.043817606 -0.2954288 -0.20127557 -0.18014085 -0.09909199 -0.2405139
-0.13397288 -0.08691489 -0.14695884 0.113628484 -0.07057987 0.039114546 0.09485207 0.07091226
0.09801654 0.09500146 0.08946964 -0.16287571 0.09083523 0.054790474 -0.060458723 0.05794133
-0.2207647 -0.03247248 -0.18763079 0.0029417186 -0.0068531563 -0.027954029 -0.05654472 -0.18146902
-0.06570775 -0.03554227 -0.07054689 0.05707888 0.07138567 -0.17275763 0.10814978 -0.02108889
0.04254935 0.07297179 -0.20496814 0.06770461 0.037888736 0.055077337 0.023419468 -0.28496766
-0.2424796 -0.28711635 -0.065356925 -0.27574062 -0.20555377 -0.15397587 0.13418949 0.015872424
0.1253529 -0.1956552 -0.19386165 0.14466424 -0.25122818 -0.09003561 -0.098448314 -0.08881829
-0.3013347 -0.20310296 0.02117279 0.12657677 -0.11445602 0.11413669 0.080583654 -0.09106219
-0.25822592 -0.032337476 -0.12726815 0.12160643 -0.07890122 -0.10531853 0.15730235 -0.11294432
0.066425174 0.09857939 0.09182994 -0.07998478 -0.19229257 0.08506048 0.06032455 0.12682708
0.07653887 -0.21551323 -0.007226162 -0.16950677 -0.14807445 0.0628832 -0.20214523 -0.30490655
-0.2580638 0.08682267 -0.031489953 -0.19647223 0.09630141 0.0715252 -0.29079637 -0.24740656
0.13049479 0.078552805 0.077121995 0.04221372 -0.06949783 -0.35084346 0.10264582 -0.01720653
0.059652075 -0.047265563 -0.2663866 -0.19130096 -0.26991373 -0.15963615 -0.25105026 -0.11464557
0.084513605 0.09243909 -0.15511788 -0.21163031 -0.010105148 0.09415738 0.0923636 0.073321626
0.089803316 0.055745326 -0.29979843 0.059557896 -0.05047733 -0.16550195 -0.14393698 0.03409557
0.050087884 -0.024411542 -0.15130606 0.023775067 0.11627393 -0.065934815 -0.17383063 -0.19624797
-0.29180866 -0.15896614 -0.14395784 0.15218718 -0.13703904 0.1045055 -0.37222928 -0.2255186
0.08722753 0.0585457 0.03488772 -0.2099556 -0.10317905 -0.15561575 -0.10532948 -0.11163268
-0.2174605 -0.17069668 -0.0024228548 -0.18724759 -0.06530998 0.12146936 -0.106310345 0.09903177
-0.087955624 0.11588337 0.04812865 -0.11703037 -0.14111827 -0.11343974 -0.19216442 0.030366475
0.09304095 0.08082303 -0.118580975 0.01983342 0.06431353 -0.25316462 -0.116556816 -0.07900455

16.bias f4 [10]
00000000: 27e4 b63e 8e6c 5b3e b7ef f5bd 4263 a9bc
00000010: 8cbf 03be d87f c5bc 2e14 853a 945a 863c
00000020: 2aa9 143e 35c2 e2bd
0.3572094 0.21428129 -0.120086126 -0.020677213 -0.12866038 -0.024108812 0.0010153109 0.016400613
0.14517656 -0.11072198
